…
torch.Size([512])
torch.Size([2048, 512, 1, 1, 1])
torch.Size([2048])
torch.Size([2048])
torch.Size([157, 2048, 1, 1, 1])
torch.Size([157])
loading pretrained-weights from /data/stars/share/charades/cache/resnet50_3d_charades/model_best.pth.tar
---------------------------
arch is  resnet50_3d
replacing last layer
=> loading checkpoint '/data/stars/share/charades/cache/resnet50_3d_charades_continue/model.pth.tar'
=> loaded checkpoint '/data/stars/share/charades/cache/resnet50_3d_charades_continue/model.pth.tar' (epoch 13)
MyDataParallel(
  (module): DefaultWrapper(
    (basenet): ResNet3D(
      (conv1): Conv3d(3, 64, kernel_size=(5, 7, 7), stride=(2, 2, 2), padding=(2, 3, 3), bias=False)
      (bn1): BatchNorm3d(64, eps=0.001, momentum=0.01, affine=True, track_running_stats=True)
      (relu): ReLU(inplace)
      (maxpool): MaxPool3d(kernel_size=3, stride=2, padding=(1, 1, 1), dilation=1, ceil_mode=False)
      (layer1): Sequential(
        (0): Bottleneck3D(
          (conv1): Conv3d(64, 64, kernel_size=(3, 1, 1), stride=(1, 1, 1), padding=(1, 0, 0), bias=False)
          (bn1): BatchNorm3d(64, eps=0.001, momentum=0.01, affine=True, track_running_stats=True)
          (conv2): Conv3d(64, 64, kernel_size=(1, 3, 3), stride=(1, 1, 1), padding=(0, 1, 1), bias=False)
          (bn2): BatchNorm3d(64, eps=0.001, momentum=0.01, affine=True, track_running_stats=True)
          (conv3): Conv3d(64, 256, kernel_size=(1, 1, 1), stride=(1, 1, 1), bias=False)
          (bn3): BatchNorm3d(256, eps=0.001, momentum=0.01, affine=True, track_running_stats=True)
          (relu): ReLU(inplace)
          (downsample): Sequential(
            (0): Conv3d(64, 256, kernel_size=(1, 1, 1), stride=(1, 1, 1), bias=False)
            (1): BatchNorm3d(256, eps=1e-05, momentum=0.1, affine=True, track_running_stats=True)
          )
        )
        (1): Bottleneck3D(
          (conv1): Conv3d(256, 64, kernel_size=(3, 1, 1), stride=(1, 1, 1), padding=(1, 0, 0), bias=False)
          (bn1): BatchNorm3d(64, eps=0.001, momentum=0.01, affine=True, track_running_stats=True)
          (conv2): Conv3d(64, 64, kernel_size=(1, 3, 3), stride=(1, 1, 1), padding=(0, 1, 1), bias=False)
          (bn2): BatchNorm3d(64, eps=0.001, momentum=0.01, affine=True, track_running_stats=True)
          (conv3): Conv3d(64, 256, kernel_size=(1, 1, 1), stride=(1, 1, 1), bias=False)
          (bn3): BatchNorm3d(256, eps=0.001, momentum=0.01, affine=True, track_running_stats=True)
          (relu): ReLU(inplace)
        )
        (2): Bottleneck3D(
          (conv1): Conv3d(256, 64, kernel_size=(3, 1, 1), stride=(1, 1, 1), padding=(1, 0, 0), bias=False)
          (bn1): BatchNorm3d(64, eps=0.001, momentum=0.01, affine=True, track_running_stats=True)
          (conv2): Conv3d(64, 64, kernel_size=(1, 3, 3), stride=(1, 1, 1), padding=(0, 1, 1), bias=False)
          (bn2): BatchNorm3d(64, eps=0.001, momentum=0.01, affine=True, track_running_stats=True)
          (conv3): Conv3d(64, 256, kernel_size=(1, 1, 1), stride=(1, 1, 1), bias=False)
          (bn3): BatchNorm3d(256, eps=0.001, momentum=0.01, affine=True, track_running_stats=True)
          (relu): ReLU(inplace)
        )
      )
      (maxpool2): MaxPool3d(kernel_size=(3, 1, 1), stride=(2, 1, 1), padding=(1, 0, 0), dilation=1, ceil_mode=False)
      (layer2): Sequential(
        (0): Bottleneck3D(
          (conv1): Conv3d(256, 128, kernel_size=(3, 1, 1), stride=(1, 1, 1), padding=(1, 0, 0), bias=False)
          (bn1): BatchNorm3d(128, eps=0.001, momentum=0.01, affine=True, track_running_stats=True)
          (conv2): Conv3d(128, 128, kernel_size=(1, 3, 3), stride=(1, 2, 2), padding=(0, 1, 1), bias=False)
          (bn2): BatchNorm3d(128, eps=0.001, momentum=0.01, affine=True, track_running_stats=True)
          (conv3): Conv3d(128, 512, kernel_size=(1, 1, 1), stride=(1, 1, 1), bias=False)
          (bn3): BatchNorm3d(512, eps=0.001, momentum=0.01, affine=True, track_running_stats=True)
          (relu): ReLU(inplace)
          (downsample): Sequential(
            (0): Conv3d(256, 512, kernel_size=(1, 1, 1), stride=(1, 2, 2), bias=False)
            (1): BatchNorm3d(512, eps=1e-05, momentum=0.1, affine=True, track_running_stats=True)
          )
        )
        (1): Bottleneck3D(
          (conv1): Conv3d(512, 128, kernel_size=(3, 1, 1), stride=(1, 1, 1), padding=(1, 0, 0), bias=False)
          (bn1): BatchNorm3d(128, eps=0.001, momentum=0.01, affine=True, track_running_stats=True)
          (conv2): Conv3d(128, 128, kernel_size=(1, 3, 3), stride=(1, 1, 1), padding=(0, 1, 1), bias=False)
          (bn2): BatchNorm3d(128, eps=0.001, momentum=0.01, affine=True, track_running_stats=True)
          (conv3): Conv3d(128, 512, kernel_size=(1, 1, 1), stride=(1, 1, 1), bias=False)
          (bn3): BatchNorm3d(512, eps=0.001, momentum=0.01, affine=True, track_running_stats=True)
          (relu): ReLU(inplace)
        )
        (2): Bottleneck3D(
          (conv1): Conv3d(512, 128, kernel_size=(3, 1, 1), stride=(1, 1, 1), padding=(1, 0, 0), bias=False)
          (bn1): BatchNorm3d(128, eps=0.001, momentum=0.01, affine=True, track_running_stats=True)
          (conv2): Conv3d(128, 128, kernel_size=(1, 3, 3), stride=(1, 1, 1), padding=(0, 1, 1), bias=False)
          (bn2): BatchNorm3d(128, eps=0.001, momentum=0.01, affine=True, track_running_stats=True)
          (conv3): Conv3d(128, 512, kernel_size=(1, 1, 1), stride=(1, 1, 1), bias=False)
          (bn3): BatchNorm3d(512, eps=0.001, momentum=0.01, affine=True, track_running_stats=True)
          (relu): ReLU(inplace)
        )
        (3): Bottleneck3D(
          (conv1): Conv3d(512, 128, kernel_size=(3, 1, 1), stride=(1, 1, 1), padding=(1, 0, 0), bias=False)
          (bn1): BatchNorm3d(128, eps=0.001, momentum=0.01, affine=True, track_running_stats=True)
          (conv2): Conv3d(128, 128, kernel_size=(1, 3, 3), stride=(1, 1, 1), padding=(0, 1, 1), bias=False)
          (bn2): BatchNorm3d(128, eps=0.001, momentum=0.01, affine=True, track_running_stats=True)
          (conv3): Conv3d(128, 512, kernel_size=(1, 1, 1), stride=(1, 1, 1), bias=False)
          (bn3): BatchNorm3d(512, eps=0.001, momentum=0.01, affine=True, track_running_stats=True)
          (relu): ReLU(inplace)
        )
      )
      (layer3): Sequential(
        (0): Bottleneck3D(
          (conv1): Conv3d(512, 256, kernel_size=(3, 1, 1), stride=(1, 1, 1), padding=(1, 0, 0), bias=False)
          (bn1): BatchNorm3d(256, eps=0.001, momentum=0.01, affine=True, track_running_stats=True)
          (conv2): Conv3d(256, 256, kernel_size=(1, 3, 3), stride=(1, 2, 2), padding=(0, 1, 1), bias=False)
          (bn2): BatchNorm3d(256, eps=0.001, momentum=0.01, affine=True, track_running_stats=True)
          (conv3): Conv3d(256, 1024, kernel_size=(1, 1, 1), stride=(1, 1, 1), bias=False)
          (bn3): BatchNorm3d(1024, eps=0.001, momentum=0.01, affine=True, track_running_stats=True)
          (relu): ReLU(inplace)
          (downsample): Sequential(
            (0): Conv3d(512, 1024, kernel_size=(1, 1, 1), stride=(1, 2, 2), bias=False)
            (1): BatchNorm3d(1024, eps=1e-05, momentum=0.1, affine=True, track_running_stats=True)
          )
        )
        (1): Bottleneck3D(
          (conv1): Conv3d(1024, 256, kernel_size=(3, 1, 1), stride=(1, 1, 1), padding=(1, 0, 0), bias=False)
          (bn1): BatchNorm3d(256, eps=0.001, momentum=0.01, affine=True, track_running_stats=True)
          (conv2): Conv3d(256, 256, kernel_size=(1, 3, 3), stride=(1, 1, 1), padding=(0, 1, 1), bias=False)
          (bn2): BatchNorm3d(256, eps=0.001, momentum=0.01, affine=True, track_running_stats=True)
          (conv3): Conv3d(256, 1024, kernel_size=(1, 1, 1), stride=(1, 1, 1), bias=False)
          (bn3): BatchNorm3d(1024, eps=0.001, momentum=0.01, affine=True, track_running_stats=True)
          (relu): ReLU(inplace)
        )
        (2): Bottleneck3D(
          (conv1): Conv3d(1024, 256, kernel_size=(3, 1, 1), stride=(1, 1, 1), padding=(1, 0, 0), bias=False)
          (bn1): BatchNorm3d(256, eps=0.001, momentum=0.01, affine=True, track_running_stats=True)
          (conv2): Conv3d(256, 256, kernel_size=(1, 3, 3), stride=(1, 1, 1), padding=(0, 1, 1), bias=False)
          (bn2): BatchNorm3d(256, eps=0.001, momentum=0.01, affine=True, track_running_stats=True)
          (conv3): Conv3d(256, 1024, kernel_size=(1, 1, 1), stride=(1, 1, 1), bias=False)
          (bn3): BatchNorm3d(1024, eps=0.001, momentum=0.01, affine=True, track_running_stats=True)
          (relu): ReLU(inplace)
        )
        (3): Bottleneck3D(
          (conv1): Conv3d(1024, 256, kernel_size=(3, 1, 1), stride=(1, 1, 1), padding=(1, 0, 0), bias=False)
          (bn1): BatchNorm3d(256, eps=0.001, momentum=0.01, affine=True, track_running_stats=True)
          (conv2): Conv3d(256, 256, kernel_size=(1, 3, 3), stride=(1, 1, 1), padding=(0, 1, 1), bias=False)
          (bn2): BatchNorm3d(256, eps=0.001, momentum=0.01, affine=True, track_running_stats=True)
          (conv3): Conv3d(256, 1024, kernel_size=(1, 1, 1), stride=(1, 1, 1), bias=False)
          (bn3): BatchNorm3d(1024, eps=0.001, momentum=0.01, affine=True, track_running_stats=True)
          (relu): ReLU(inplace)
        )
        (4): Bottleneck3D(
          (conv1): Conv3d(1024, 256, kernel_size=(3, 1, 1), stride=(1, 1, 1), padding=(1, 0, 0), bias=False)
          (bn1): BatchNorm3d(256, eps=0.001, momentum=0.01, affine=True, track_running_stats=True)
          (conv2): Conv3d(256, 256, kernel_size=(1, 3, 3), stride=(1, 1, 1), padding=(0, 1, 1), bias=False)
          (bn2): BatchNorm3d(256, eps=0.001, momentum=0.01, affine=True, track_running_stats=True)
          (conv3): Conv3d(256, 1024, kernel_size=(1, 1, 1), stride=(1, 1, 1), bias=False)
          (bn3): BatchNorm3d(1024, eps=0.001, momentum=0.01, affine=True, track_running_stats=True)
          (relu): ReLU(inplace)
        )
        (5): Bottleneck3D(
          (conv1): Conv3d(1024, 256, kernel_size=(3, 1, 1), stride=(1, 1, 1), padding=(1, 0, 0), bias=False)
          (bn1): BatchNorm3d(256, eps=0.001, momentum=0.01, affine=True, track_running_stats=True)
          (conv2): Conv3d(256, 256, kernel_size=(1, 3, 3), stride=(1, 1, 1), padding=(0, 1, 1), bias=False)
          (bn2): BatchNorm3d(256, eps=0.001, momentum=0.01, affine=True, track_running_stats=True)
          (conv3): Conv3d(256, 1024, kernel_size=(1, 1, 1), stride=(1, 1, 1), bias=False)
          (bn3): BatchNorm3d(1024, eps=0.001, momentum=0.01, affine=True, track_running_stats=True)
          (relu): ReLU(inplace)
        )
      )
      (layer4): Sequential(
        (0): Bottleneck3D(
          (conv1): Conv3d(1024, 512, kernel_size=(3, 1, 1), stride=(1, 1, 1), padding=(1, 0, 0), bias=False)
          (bn1): BatchNorm3d(512, eps=0.001, momentum=0.01, affine=True, track_running_stats=True)
          (conv2): Conv3d(512, 512, kernel_size=(1, 3, 3), stride=(1, 2, 2), padding=(0, 1, 1), bias=False)
          (bn2): BatchNorm3d(512, eps=0.001, momentum=0.01, affine=True, track_running_stats=True)
          (conv3): Conv3d(512, 2048, kernel_size=(1, 1, 1), stride=(1, 1, 1), bias=False)
          (bn3): BatchNorm3d(2048, eps=0.001, momentum=0.01, affine=True, track_running_stats=True)
          (relu): ReLU(inplace)
          (downsample): Sequential(
            (0): Conv3d(1024, 2048, kernel_size=(1, 1, 1), stride=(1, 2, 2), bias=False)
            (1): BatchNorm3d(2048, eps=1e-05, momentum=0.1, affine=True, track_running_stats=True)
          )
        )
        (1): Bottleneck3D(
          (conv1): Conv3d(2048, 512, kernel_size=(3, 1, 1), stride=(1, 1, 1), padding=(1, 0, 0), bias=False)
          (bn1): BatchNorm3d(512, eps=0.001, momentum=0.01, affine=True, track_running_stats=True)
          (conv2): Conv3d(512, 512, kernel_size=(1, 3, 3), stride=(1, 1, 1), padding=(0, 1, 1), bias=False)
          (bn2): BatchNorm3d(512, eps=0.001, momentum=0.01, affine=True, track_running_stats=True)
          (conv3): Conv3d(512, 2048, kernel_size=(1, 1, 1), stride=(1, 1, 1), bias=False)
          (bn3): BatchNorm3d(2048, eps=0.001, momentum=0.01, affine=True, track_running_stats=True)
          (relu): ReLU(inplace)
        )
        (2): Bottleneck3D(
          (conv1): Conv3d(2048, 512, kernel_size=(3, 1, 1), stride=(1, 1, 1), padding=(1, 0, 0), bias=False)
          (bn1): BatchNorm3d(512, eps=0.001, momentum=0.01, affine=True, track_running_stats=True)
          (conv2): Conv3d(512, 512, kernel_size=(1, 3, 3), stride=(1, 1, 1), padding=(0, 1, 1), bias=False)
          (bn2): BatchNorm3d(512, eps=0.001, momentum=0.01, affine=True, track_running_stats=True)
          (conv3): Conv3d(512, 2048, kernel_size=(1, 1, 1), stride=(1, 1, 1), bias=False)
          (bn3): BatchNorm3d(2048, eps=0.001, momentum=0.01, affine=True, track_running_stats=True)
          (relu): ReLU(inplace)
        )
      )
      (avgpool): AvgPool3d(kernel_size=(2, 7, 7), stride=(1, 1, 1), padding=0)
      (dropout): Dropout(p=0.5)
      (fc): Conv3d(2048, 157, kernel_size=(1, 1, 1), stride=(1, 1, 1))
    )
  )
)
cache_file /data/stars/share/charades/cache/resnet50_3d_charades_continue//CharadesVideo_train.pkl
Loading cached result from '/data/stars/share/charades/cache/resnet50_3d_charades_continue//CharadesVideo_train.pkl'
cache_file /data/stars/share/charades/cache/resnet50_3d_charades_continue//CharadesVideo_val.pkl
Loading cached result from '/data/stars/share/charades/cache/resnet50_3d_charades_continue//CharadesVideo_val.pkl'
…
